…
m","text":["Model 1 Summary:\n","Model: \"model_5\"\n","__________________________________________________________________________________________________\n"," Layer (type)                Output Shape                 Param #   Connected to                  \n","==================================================================================================\n"," input_1 (InputLayer)        [(None, 153, 1, 1)]          0         []                            \n","                                                                                                  \n"," conv2d (Conv2D)             (None, 153, 1, 512)          13312     ['input_1[0][0]']             \n","                                                                                                  \n"," batch_normalization (Batch  (None, 153, 1, 512)          2048      ['conv2d[0][0]']              \n"," Normalization)                                                                                   \n","                                                                                                  \n"," activation (Activation)     (None, 153, 1, 512)          0         ['batch_normalization[0][0]'] \n","                                                                                                  \n"," max_pooling2d (MaxPooling2  (None, 77, 1, 512)           0         ['activation[0][0]']          \n"," D)                                                                                               \n","                                                                                                  \n"," conv2d_1 (Conv2D)           (None, 77, 1, 256)           3277056   ['max_pooling2d[0][0]']       \n","                                                                                                  \n"," batch_normalization_1 (Bat  (None, 77, 1, 256)           1024      ['conv2d_1[0][0]']            \n"," chNormalization)                                                                                 \n","                                                                                                  \n"," activation_1 (Activation)   (None, 77, 1, 256)           0         ['batch_normalization_1[0][0]'\n","                                                                    ]                             \n","                                                                                                  \n"," max_pooling2d_1 (MaxPoolin  (None, 39, 1, 256)           0         ['activation_1[0][0]']        \n"," g2D)                                                                                             \n","                                                                                                  \n"," conv2d_2 (Conv2D)           (None, 39, 1, 128)           295040    ['max_pooling2d_1[0][0]']     \n","                                                                                                  \n"," batch_normalization_2 (Bat  (None, 39, 1, 128)           512       ['conv2d_2[0][0]']            \n"," chNormalization)                                                                                 \n","                                                                                                  \n"," activation_2 (Activation)   (None, 39, 1, 128)           0         ['batch_normalization_2[0][0]'\n","                                                                    ]                             \n","                                                                                                  \n"," max_pooling2d_2 (MaxPoolin  (None, 20, 1, 128)           0         ['activation_2[0][0]']        \n"," g2D)                                                                                             \n","                                                                                                  \n"," conv2d_3 (Conv2D)           (None, 20, 1, 64)            73792     ['max_pooling2d_2[0][0]']     \n","                                                                                                  \n"," batch_normalization_3 (Bat  (None, 20, 1, 64)            256       ['conv2d_3[0][0]']            \n"," chNormalization)                                                                                 \n","                                                                                                  \n"," activation_3 (Activation)   (None, 20, 1, 64)            0         ['batch_normalization_3[0][0]'\n","                                                                    ]                             \n","                                                                                                  \n"," max_pooling2d_3 (MaxPoolin  (None, 10, 1, 64)            0         ['activation_3[0][0]']        \n"," g2D)                                                                                             \n","                                                                                                  \n"," global_average_pooling2d (  (None, 64)                   0         ['max_pooling2d_3[0][0]']     \n"," GlobalAveragePooling2D)                                                                          \n","                                                                                                  \n"," reshape (Reshape)           (None, 1, 64)                0         ['global_average_pooling2d[0][\n","                                                                    0]']                          \n","                                                                                                  \n"," bidirectional (Bidirection  (None, 1, 256)               197632    ['reshape[0][0]']             \n"," al)                                                                                              \n","                                                                                                  \n"," attention (Attention)       (None, 1, 256)               0         ['bidirectional[0][0]',       \n","                                                                     'bidirectional[0][0]']       \n","                                                                                                  \n"," bidirectional_1 (Bidirecti  (None, 1, 128)               123648    ['attention[0][0]']           \n"," onal)                                                                                            \n","                                                                                                  \n"," attention_1 (Attention)     (None, 1, 128)               0         ['bidirectional_1[0][0]',     \n","                                                                     'bidirectional_1[0][0]']     \n","                                                                                                  \n"," flatten (Flatten)           (None, 128)                  0         ['attention_1[0][0]']         \n","                                                                                                  \n"," dense (Dense)               (None, 6)                    774       ['flatten[0][0]']             \n","                                                                                                  \n","==================================================================================================\n","Total params: 3985094 (15.20 MB)\n","Trainable params: 3983174 (15.19 MB)\n","Non-trainable params: 1920 (7.50 KB)\n","__________________________________________________________________________________________________\n","Model 2 Summary:\n","Model: \"model_6\"\n","_________________________________________________________________\n"," Layer (type)                Output Shape              Param #   \n","=================================================================\n"," input_1 (InputLayer)        [(None, 153, 1, 1)]       0         \n","                                                                 \n"," conv2d_4 (Conv2D)           (None, 153, 1, 512)       13312     \n","                                                                 \n"," batch_normalization_4 (Bat  (None, 153, 1, 512)       2048      \n"," chNormalization)                                                \n","                                                                 \n"," activation_4 (Activation)   (None, 153, 1, 512)       0         \n","                                                                 \n"," max_pooling2d_4 (MaxPoolin  (None, 77, 1, 512)        0         \n"," g2D)                                                            \n","                                                                 \n"," conv2d_5 (Conv2D)           (None, 77, 1, 256)        3277056   \n","                                                                 \n"," batch_normalization_5 (Bat  (None, 77, 1, 256)        1024      \n"," chNormalization)                                                \n","                                                                 \n"," activation_5 (Activation)   (None, 77, 1, 256)        0         \n","                                                                 \n"," max_pooling2d_5 (MaxPoolin  (None, 39, 1, 256)        0         \n"," g2D)                                                            \n","                                                                 \n"," conv2d_6 (Conv2D)           (None, 39, 1, 128)        295040    \n","                                                                 \n"," batch_normalization_6 (Bat  (None, 39, 1, 128)        512       \n"," chNormalization)                                                \n","                                                                 \n"," activation_6 (Activation)   (None, 39, 1, 128)        0         \n","                                                                 \n"," max_pooling2d_6 (MaxPoolin  (None, 20, 1, 128)        0         \n"," g2D)                                                            \n","                                                                 \n"," conv2d_7 (Conv2D)           (None, 20, 1, 64)         73792     \n","                                                                 \n"," batch_normalization_7 (Bat  (None, 20, 1, 64)         256       \n"," chNormalization)                                                \n","                                                                 \n"," activation_7 (Activation)   (None, 20, 1, 64)         0         \n","                                                                 \n"," max_pooling2d_7 (MaxPoolin  (None, 10, 1, 64)         0         \n"," g2D)                                                            \n","                                                                 \n"," global_average_pooling2d_1  (None, 64)                0         \n","  (GlobalAveragePooling2D)                                       \n","                                                                 \n"," dense_1 (Dense)             (None, 6)                 390       \n","                                                                 \n","=================================================================\n","Total params: 3663430 (13.97 MB)\n","Trainable params: 3661510 (13.97 MB)\n","Non-trainable params: 1920 (7.50 KB)\n","_________________________________________________________________\n","Model 3 Summary:\n","Model: \"model_7\"\n","__________________________________________________________________________________________________\n"," Layer (type)                Output Shape                 Param #   Connected to                  \n","==================================================================================================\n"," input_1 (InputLayer)        [(None, 153, 1, 1)]          0         []                            \n","                                                                                                  \n"," conv2d_8 (Conv2D)           (None, 153, 1, 512)          13312     ['input_1[0][0]']             \n","                                                                                                  \n"," batch_normalization_8 (Bat  (None, 153, 1, 512)          2048      ['conv2d_8[0][0]']            \n"," chNormalization)                                                                                 \n","                                                                                                  \n"," activation_8 (Activation)   (None, 153, 1, 512)          0         ['batch_normalization_8[0][0]'\n","                                                                    ]                             \n","                                                                                                  \n"," max_pooling2d_8 (MaxPoolin  (None, 77, 1, 512)           0         ['activation_8[0][0]']        \n"," g2D)                                                                                             \n","                                                                                                  \n"," conv2d_9 (Conv2D)           (None, 77, 1, 256)           3277056   ['max_pooling2d_8[0][0]']     \n","                                                                                                  \n"," batch_normalization_9 (Bat  (None, 77, 1, 256)           1024      ['conv2d_9[0][0]']            \n"," chNormalization)                                                                                 \n","                                                                                                  \n"," activation_9 (Activation)   (None, 77, 1, 256)           0         ['batch_normalization_9[0][0]'\n","                                                                    ]                             \n","                                                                                                  \n"," max_pooling2d_9 (MaxPoolin  (None, 39, 1, 256)           0         ['activation_9[0][0]']        \n"," g2D)                                                                                             \n","                                                                                                  \n"," conv2d_10 (Conv2D)          (None, 39, 1, 128)           295040    ['max_pooling2d_9[0][0]']     \n","                                                                                                  \n"," batch_normalization_10 (Ba  (None, 39, 1, 128)           512       ['conv2d_10[0][0]']           \n"," tchNormalization)                                                                                \n","                                                                                                  \n"," activation_10 (Activation)  (None, 39, 1, 128)           0         ['batch_normalization_10[0][0]\n","                                                                    ']                            \n","                                                                                                  \n"," max_pooling2d_10 (MaxPooli  (None, 20, 1, 128)           0         ['activation_10[0][0]']       \n"," ng2D)                                                                                            \n","                                                                                                  \n"," conv2d_11 (Conv2D)          (None, 20, 1, 64)            73792     ['max_pooling2d_10[0][0]']    \n","                                                                                                  \n"," batch_normalization_11 (Ba  (None, 20, 1, 64)            256       ['conv2d_11[0][0]']           \n"," tchNormalization)                                                                                \n","                                                                                                  \n"," activation_11 (Activation)  (None, 20, 1, 64)            0         ['batch_normalization_11[0][0]\n","                                                                    ']                            \n","                                                                                                  \n"," max_pooling2d_11 (MaxPooli  (None, 10, 1, 64)            0         ['activation_11[0][0]']       \n"," ng2D)                                                                                            \n","                                                                                                  \n"," global_average_pooling2d_2  (None, 64)                   0         ['max_pooling2d_11[0][0]']    \n","  (GlobalAveragePooling2D)                                                                        \n","                                                                                                  \n"," reshape_1 (Reshape)         (None, 4, 16)                0         ['global_average_pooling2d_2[0\n","                                                                    ][0]']                        \n","                                                                                                  \n"," bidirectional_2 (Bidirecti  (None, 4, 256)               148480    ['reshape_1[0][0]']           \n"," onal)                                                                                            \n","                                                                                                  \n"," attention_2 (Attention)     (None, 4, 256)               0         ['bidirectional_2[0][0]',     \n","                                                                     'bidirectional_2[0][0]']     \n","                                                                                                  \n"," flatten_1 (Flatten)         (None, 1024)                 0         ['attention_2[0][0]']         \n","                                                                                                  \n"," dense_2 (Dense)             (None, 6)                    6150      ['flatten_1[0][0]']           \n","                                                                                                  \n","==================================================================================================\n","Total params: 3817670 (14.56 MB)\n","Trainable params: 3815750 (14.56 MB)\n","Non-trainable params: 1920 (7.50 KB)\n","__________________________________________________________________________________________________\n","Model 4 Summary:\n","Model: \"model_8\"\n","_________________________________________________________________\n"," Layer (type)                Output Shape              Param #   \n","=================================================================\n"," input_1 (InputLayer)        [(None, 153, 1, 1)]       0         \n","                                                                 \n"," conv2d_12 (Conv2D)          (None, 153, 1, 512)       13312     \n","                                                                 \n"," batch_normalization_12 (Ba  (None, 153, 1, 512)       2048      \n"," tchNormalization)                                               \n","                                                                 \n"," activation_12 (Activation)  (None, 153, 1, 512)       0         \n","                                                                 \n"," max_pooling2d_12 (MaxPooli  (None, 77, 1, 512)        0         \n"," ng2D)                                                           \n","                                                                 \n"," conv2d_13 (Conv2D)          (None, 77, 1, 256)        3277056   \n","                                                                 \n"," batch_normalization_13 (Ba  (None, 77, 1, 256)        1024      \n"," tchNormalization)                                               \n","                                                                 \n"," activation_13 (Activation)  (None, 77, 1, 256)        0         \n","                                                                 \n"," max_pooling2d_13 (MaxPooli  (None, 39, 1, 256)        0         \n"," ng2D)                                                           \n","                                                                 \n"," conv2d_14 (Conv2D)          (None, 39, 1, 128)        295040    \n","                                                                 \n"," batch_normalization_14 (Ba  (None, 39, 1, 128)        512       \n"," tchNormalization)                                               \n","                                                                 \n"," activation_14 (Activation)  (None, 39, 1, 128)        0         \n","                                                                 \n"," max_pooling2d_14 (MaxPooli  (None, 20, 1, 128)        0         \n"," ng2D)                                                           \n","                                                                 \n"," conv2d_15 (Conv2D)          (None, 20, 1, 64)         73792     \n","                                                                 \n"," batch_normalization_15 (Ba  (None, 20, 1, 64)         256       \n"," tchNormalization)                                               \n","                                                                 \n"," activation_15 (Activation)  (None, 20, 1, 64)         0         \n","                                                                 \n"," max_pooling2d_15 (MaxPooli  (None, 10, 1, 64)         0         \n"," ng2D)                                                           \n","                                                                 \n"," global_average_pooling2d_3  (None, 64)                0         \n","  (GlobalAveragePooling2D)                                       \n","                                                                 \n"," dense_3 (Dense)             (None, 6)                 390       \n","                                                                 \n","=================================================================\n","Total params: 3663430 (13.97 MB)\n","Trainable params: 3661510 (13.97 MB)\n","Non-trainable params: 1920 (7.50 KB)\n","_________________________________________________________________\n","Model 5 Summary:\n","Model: \"model_9\"\n","__________________________________________________________________________________________________\n"," Layer (type)                Output Shape                 Param #   Connected to                  \n","==================================================================================================\n"," input_1 (InputLayer)        [(None, 153, 1, 1)]          0         []                            \n","                                                                                                  \n"," conv2d_16 (Conv2D)          (None, 153, 1, 512)          13312     ['input_1[0][0]']             \n","                                                                                                  \n"," batch_normalization_16 (Ba  (None, 153, 1, 512)          2048      ['conv2d_16[0][0]']           \n"," tchNormalization)                                                                                \n","                                                                                                  \n"," activation_16 (Activation)  (None, 153, 1, 512)          0         ['batch_normalization_16[0][0]\n","                                                                    ']                            \n","                                                                                                  \n"," max_pooling2d_16 (MaxPooli  (None, 77, 1, 512)           0         ['activation_16[0][0]']       \n"," ng2D)                                                                                            \n","                                                                                                  \n"," conv2d_17 (Conv2D)          (None, 77, 1, 256)           3277056   ['max_pooling2d_16[0][0]']    \n","                                                                                                  \n"," batch_normalization_17 (Ba  (None, 77, 1, 256)           1024      ['conv2d_17[0][0]']           \n"," tchNormalization)                                                                                \n","                                                                                                  \n"," activation_17 (Activation)  (None, 77, 1, 256)           0         ['batch_normalization_17[0][0]\n","                                                                    ']                            \n","                                                                                                  \n"," max_pooling2d_17 (MaxPooli  (None, 39, 1, 256)           0         ['activation_17[0][0]']       \n"," ng2D)                                                                                            \n","                                                                                                  \n"," conv2d_18 (Conv2D)          (None, 39, 1, 128)           295040    ['max_pooling2d_17[0][0]']    \n","                                                                                                  \n"," batch_normalization_18 (Ba  (None, 39, 1, 128)           512       ['conv2d_18[0][0]']           \n"," tchNormalization)                                                                                \n","                                                                                                  \n"," activation_18 (Activation)  (None, 39, 1, 128)           0         ['batch_normalization_18[0][0]\n","                                                                    ']                            \n","                                                                                                  \n"," max_pooling2d_18 (MaxPooli  (None, 20, 1, 128)           0         ['activation_18[0][0]']       \n"," ng2D)                                                                                            \n","                                                                                                  \n"," conv2d_19 (Conv2D)          (None, 20, 1, 64)            73792     ['max_pooling2d_18[0][0]']    \n","                                                                                                  \n"," batch_normalization_19 (Ba  (None, 20, 1, 64)            256       ['conv2d_19[0][0]']           \n"," tchNormalization)                                                                                \n","                                                                                                  \n"," activation_19 (Activation)  (None, 20, 1, 64)            0         ['batch_normalization_19[0][0]\n","                                                                    ']                            \n","                                                                                                  \n"," max_pooling2d_19 (MaxPooli  (None, 10, 1, 64)            0         ['activation_19[0][0]']       \n"," ng2D)                                                                                            \n","                                                                                                  \n"," global_average_pooling2d_4  (None, 64)                   0         ['max_pooling2d_19[0][0]']    \n","  (GlobalAveragePooling2D)                                                                        \n","                                                                                                  \n"," reshape_2 (Reshape)         (None, 1, 64)                0         ['global_average_pooling2d_4[0\n","                                                                    ][0]']                        \n","                                                                                                  \n"," bidirectional_3 (Bidirecti  (None, 1, 256)               197632    ['reshape_2[0][0]']           \n"," onal)                                                                                            \n","                                                                                                  \n"," bidirectional_4 (Bidirecti  (None, 1, 128)               123648    ['bidirectional_3[0][0]']     \n"," onal)                                                                                            \n","                                                                                                  \n"," attention_3 (Attention)     (None, 1, 128)               0         ['bidirectional_4[0][0]',     \n","                                                                     'bidirectional_4[0][0]']     \n","                                                                                                  \n"," attention_4 (Attention)     (None, 1, 128)               0         ['bidirectional_4[0][0]',     \n","                                                                     'bidirectional_4[0][0]']     \n","                                                                                                  \n"," attention_5 (Attention)     (None, 1, 128)               0         ['bidirectional_4[0][0]',     \n","                                                                     'bidirectional_4[0][0]']     \n","                                                                                                  \n"," attention_6 (Attention)     (None, 1, 128)               0         ['bidirectional_4[0][0]',     \n","                                                                     'bidirectional_4[0][0]']     \n","                                                                                                  \n"," concatenate (Concatenate)   (None, 1, 512)               0         ['attention_3[0][0]',         \n","                                                                     'attention_4[0][0]',         \n","                                                                     'attention_5[0][0]',         \n","                                                                     'attention_6[0][0]']         \n","                                                                                                  \n"," flatten_2 (Flatten)         (None, 512)                  0         ['concatenate[0][0]']         \n","                                                                                                  \n"," dense_4 (Dense)             (None, 6)                    3078      ['flatten_2[0][0]']           \n","                                                                                                  \n","==================================================================================================\n","Total params: 3987398 (15.21 MB)\n","Trainable params: 3985478 (15.20 MB)\n","Non-trainable params: 1920 (7.50 KB)\n","__________________________________
…
